app/src/main/assets/converted_model.tflite (tflite, 90428 bytes, 38 tensors)

Reshape f4 [1, 8, 1, 1]
-0.13648959 -0.08834045 -0.15124227 0.14851582 0.08362054 0.2221819 0.44384098 0.33321851
00000000: edc3 0bbe d6eb b4bd 41df 1abe 8814 183e
00000010: 3f41 ab3d a783 633e 203f e33e 9e9b aa3e

Reshape_1 f4 [1, 8, 1, 1]
1.2561653 1.0068718 0.84277683 1.3130133 0.8466261 1.1160846 0.83510554 0.7303092
00000000: 06ca a03f 2de1 803f 39c0 573f d210 a83f
00000010: 7dbc 583f dcdb 8e3f 7ac9 553f 8bf5 3a3f

Reshape_10 f4 [1, 16, 1, 1]
0.19715023 0.27067983 0.37599772 0.34415272 0.017656457 0.35742888 -0.061881445 0.16316642
0.62557316 0.25703353 0.25618246 -0.35269395 0.4400618 0.14940087 0.098934956 0.08829886
00000000: c0e1 493e 8c96 8a3e c682 c03e c934 b03e
00000010: 46a4 903c eb00 b73e 6677 7dbd 1915 273e
00000020: 9025 203f e699 833e 592a 833e 4d94 b4be
00000030: c84f e13e 8bfc 183e 699e ca3d 08d6 b43d

Reshape_11 f4 [1, 16, 1, 1]
0.98642075 0.89233595 1.0761395 0.9579922 1.0895174 1.0512632 0.9122116 1.3142042
0.96238196 0.9401899 1.0039562 0.9408787 0.72118074 0.9240114 0.91551983 0.89580387
00000000: 1286 7c3f 2170 643f f0be 893f fa3e 753f
00000010: 4e75 8b3f cb8f 863f b386 693f d837 a83f
00000020: aa5e 763f 49b0 703f a381 803f 6ddd 703f
00000030: 4d9f 383f 038c 6c3f 825f 6a3f 6753 653f

Reshape_12 f4 [1, 16, 1, 1]
0.09342077 0.025580293 -0.042023752 0.055727847 0.0029718513 0.1242963 -0.022837324 -0.028667428
-0.004462976 -0.069108084 0.120824546 -0.006465521 0.12796839 -0.037340704 -0.100351535 0.13955589
00000000: 6353 bf3d c38d d13c 1921 2cbd e242 643d
00000010: 64c3 423b 0f8f fe3d 5715 bbbc f4d7 eabc
00000020: 283e 92bb 8a88 8dbd dc72 f73d b9dc d3bb
00000030: 250a 033e 91f2 18bd 1b85 cdbd bde7 0e3e

Reshape_13 f4 [1, 16, 1, 1]
1.2957869 1.1709298 1.4711283 1.190216 1.0263953 1.4458541 1.29549 1.2703018
1.2948204 1.1253963 1.303948 1.1962109 1.2613574 1.0996009 1.3459126 1.1585878
00000000: 58dc a53f 07e1 953f ef4d bc3f ff58 983f
00000010: ec60 833f bf11 b93f 9ed2 a53f 4099 a23f
00000020: adbc a53f fc0c 903f c5e7 a63f 701d 993f
00000030: 2974 a13f b9bf 8c3f dd46 ac3f 9b4c 943f

Reshape_14 f4 [1, 12, 1, 1]
-0.14496456 0.21327546 1.3370765 -0.060669012 0.028217684 -0.22670686 -0.12314241 -0.26096973
0.07849242 -0.24237816 1.0130866 -0.14207146
00000000: 9771 14be e264 5a3e 5325 ab3f 1280 78bd
00000010: c628 e73c d825 68be 1632 fcbd d39d 85be
00000020: a2c0 a03d fb31 78be d2ac 813f 2e7b 11be

Reshape_15 f4 [1, 12, 1, 1]
0.9662616 0.92102623 0.6203311 0.99105054 0.9174591 1.0117043 0.99929404 1.2079868
0.9611064 0.93396837 0.8803422 1.0613064
00000000: ec5c 773f 60c8 6b3f 05ce 1e3f 7db5 7d3f
00000010: 99de 6a3f 877f 813f bcd1 7f3f 509f 9a3f
00000020: 120b 763f 8d18 6f3f 1b5e 613f e3d8 873f

Reshape_16 f4 [1, 8, 1, 1]
2.3589914 2.092632 2.220295 2.0752 1.8098509 1.8983611 1.6308908 2.0336857
00000000: b7f9 1640 afed 0540 5019 0e40 14d0 0440
00000010: 32a9 e73f 7ffd f23f 08c1 d03f e827 0240

Reshape_17 f4 [1, 8, 1, 1]
1.817508 2.226792 2.2868612 1.8923261 2.2000353 2.1485677 2.0495284 2.0517142
00000000: 1aa4 e83f c383 0e40 ef5b 1240 be37 f23f
00000010: 61cd 0c40 2282 0940 792b 0340 494f 0340

Reshape_2 f4 [1, 12, 1, 1]
-0.01658189 0.08527716 -0.34768838 0.28919634 -0.070752464 -0.0069105634 0.09396834 -0.27622017
0.7424386 -0.10844038 1.5970505 -0.0010220027
00000000: bed6 87bc cba5 ae3d 3604 b2be 8b11 943e
00000010: abe6 90bd 0272 e2bb 7972 c03d bb6c 8dbe
00000020: 7510 3e3f fd15 debd 276c cc3f b8f4 85ba

Reshape_3 f4 [1, 12, 1, 1]
1.0929217 0.6340282 0.71308786 1.3921485 1.1411089 0.9847736 1.0454564 0.6292757
0.43035796 0.8299181 0.50546324 1.1277206
00000000: dce4 8b3f ac4f 223f ed8c 363f ec31 b23f
00000010: db0f 923f 1f1a 7c3f 84d1 853f 3618 213f
00000020: e157 dc3e 8375 543f 0a66 013f 2659 903f

Reshape_4 f4 [1, 16, 1, 1]
0.49220705 0.025621418 -0.05371488 0.10382824 0.025173109 0.03970558 -0.09399766 0.046070457
-0.22634037 0.21027133 1.1741879 0.033208434 0.5971313 0.22768378 -0.15901485 0.032892108
00000000: 9002 fc3e 02e4 d13c 2204 5cbd e6a3 d43d
00000010: d637 ce3c 51a2 223d d881 c0bd 60b4 3c3d
00000020: c5c5 67be 5e51 573e ca4b 963f 9105 083d
00000030: 99dd 183f f025 693e cad4 22be e0b9 063d

Reshape_5 f4 [1, 16, 1, 1]
0.42125374 0.65914464 0.736504 0.6575672 0.68578714 0.8415374 0.4977437 0.43474886
0.8154958 0.8588355 0.40372887 0.4375559 0.5594794 0.6246902 0.5933212 0.67305595
00000000: 92ae d73e b4bd 283f 878b 3c3f 5356 283f
00000010: bf8f 2f3f ff6e 573f 43d8 fe3e 6797 de3e
00000020: 55c4 503f a5dc 5b3f 8db5 ce3e 5407 e03e
00000030: 0b3a 0f3f b2eb 1f3f e6e3 173f 654d 2c3f

Reshape_6 f4 [1, 16, 1, 1]
0.80647266 -0.021598477 -0.09181582 0.75777555 0.859883 0.70020556 0.6558627 -0.6076184
0.08115085 -0.08674602 0.94554675 0.039761305 0.13859203 -0.108342245 0.014038279 -0.15099213
00000000: fe74 4e3f 4aef b0bc ef09 bcbd 94fd 413f
00000010: 4b21 5c3f ac40 333f 9ee6 273f e18c 1bbf
00000020: 6b32 a63d e6a7 b1bd 5a0f 723f c0dc 223d
00000030: 12eb 0d3e 8ae2 ddbd cf00 663c ae9d 1abe

Reshape_7 f4 [1, 16, 1, 1]
0.73228765 1.1601874 0.95969206 0.9315447 0.692039 0.8460961 0.8095821 0.91989845
0.87724733 0.9380676 0.7553086 0.86642027 0.9193658 1.0216342 0.9654415 0.92489064
00000000: 3477 3b3f 0581 943f 61ae 753f b779 6e3f
00000010: 7829 313f c199 583f c640 4f3f 777e 6b3f
00000020: 4893 603f 3325 703f e85b 413f b8cd 5d3f
00000030: 8f5b 6b3f e9c4 823f 2d27 773f a2c5 6c3f

Reshape_8 f4 [1, 16, 1, 1]
0.15095104 0.11036981 0.15653186 -0.031290613 0.11634216 -0.029542306 0.056707934 -0.066407226
-0.03163665 -0.05839254 0.096714646 0.18602312 0.15834463 -0.121792145 -0.11086041 0.010000172
00000000: e992 1a3e 9109 e23d e349 203e 962a 00bd
00000010: cc44 ee3d b502 f2bc 9446 683d 8300 88bd
00000020: 6f95 01bd 042d 6fbd 5412 c63d d87c 3e3e
00000030: 1825 223e 296e f9bd c80a e3bd c3d7 233c

Reshape_9 f4 [1, 16, 1, 1]
0.85521203 0.8948354 1.0004867 0.8673034 0.87219113 1.0671449 1.097413 0.9508956
0.916121 0.92762727 0.9066837 1.0697159 1.1984161 1.0146432 0.9445583 0.92899066
00000000: 2def 5a3f ef13 653f f30f 803f 9807 5e3f
00000010: eb47 5f3f 3498 883f 0778 8c3f e56d 733f
00000020: e886 6a3f fb78 6d3f 6c1c 683f 73ec 883f
00000030: b365 993f d4df 813f 93ce 713f 55d2 6d3f

convolution_1_bias f4 [12]
0.12482883 -0.21694079 0.15319504 0.101938665 -0.13906592 0.119616434 0.21648195 -0.12962794
-0.14943983 0.00847664 -0.10712062 0.16655779
00000000: 42a6 ff3d ba25 5ebe 29df 1c3e 38c5 d03d
00000010: 4c67 0ebe 76f9 f43d 72ad 5d3e 30bd 04be
00000020: c106 19be 9be1 0a3c 0e62 dbbd 208e 2a3e

convolution_2_bias f4 [16]
0.036596928 -0.0911244 0.08504356 0.027112762 -0.057920776 0.060560778 0.105864234 -0.027146747
0.24922645 0.023270674 -0.035909615 0.048907034 -0.015348641 0.021378873 -0.04560705 0.10856802
00000000: a9e6 153d 6e9f babd 512b ae3d 951b de3c
00000010: 563e 6dbd 940e 783d 59cf d83d db62 debc
00000020: 3835 7f3e 24a2 be3c f615 13bd be52 483d
00000030: de78 7bbc bf22 af3c 75ce 3abd e958 de3d

convolution_3_bias f4 [16]
-0.0122737745 0.10478001 0.026991708 0.032814227 0.021506915 -0.08512859 0.06454256 0.0059244414
-0.045741823 -0.03730096 0.1712502 -0.058207747 0.0030214367 -0.0079263095 0.05683047 0.17419103
00000000: f117 49bc e796 d63d b71d dd3c 3668 063d
00000010: 452f b03c e657 aebd e42e 843d d121 c23b
00000020: c75b 3bbd e4c8 18bd 365c 2f3e 3f6b 6ebd
00000030: 4c03 463b 5add 01bc 11c7 683d 225f 323e

convolution_4_bias f4 [16]
-0.051105436 -0.20119011 -0.079605795 0.024158904 0.04749812 -0.1269238 0.02933399 0.22317223
-0.040757217 0.031714708 0.1287852 0.12704942 0.003920722 -0.12394108 -0.023477325 0.06997853
00000000: ef53 51bd c804 4ebe 5d08 a3bd e5e8 c53c
00000010: 648d 423d 50f8 01be d64d f03c 4387 643e
00000020: 0af1 26bd 48e7 013d 44e0 033e 3e19 023e
00000030: 6679 803b d2d4 fdbd 8553 c0bc e750 8f3d

convolution_5_bias f4 [16]
-0.12524372 -0.026011923 0.14782783 -0.0059673456 0.1343772 -0.13200572 0.20188262 0.029433332
0.20608887 -0.07295896 -0.041657653 0.084618635 -0.045883615 0.05369145 0.011257234 -0.10697744
00000000: e43f 00be f516 d5bc 2e60 173e b989 c3bb
00000010: 2d9a 093e 822c 07be 51ba 4e3e 2c1e f13c
00000020: f608 533e 826b 95bd 37a1 2abd 894c ad3d
00000030: 75f0 3bbd 91eb 5b3d 4370 383c fd16 dbbd

convolution_6_bias f4 [16]
-0.12312088 0.04505425 -0.08164625 -0.081638604 0.13100424 0.07751289 -0.16143008 -0.08056693
0.023079442 -0.20252827 0.09675595 0.026641006 0.0050561107 0.03938484 -0.12334197 0.16303654
00000000: cd26 fcbd ce8a 383d 2636 a7bd 2432 a7bd
00000010: fa25 063e 14bf 9e3d ed4d 25be 4600 a5bd
00000020: 1911 bd3c 9263 4fbe fc27 c63d 3d3e da3c
00000030: bbad a53b ff51 213d b79a fcbd 0df3 263e

convolution_7_bias f4 [12]
-0.055391386 -0.0069766054 -0.11666005 -0.014776478 0.088649586 0.13646963 0.046345726 0.025880776
0.042381715 -0.20473404 0.1133423 0.07753527
00000000: 14e2 62bd 029c e4bb 77eb eebd 0a19 72bc
00000010: ea8d b53d b2be 0b3e 04d5 3d3d ec03 d43c
00000020: 7398 2d3d cda5 51be 0220 e83d d0ca 9e3d

convolution_8_bias f4 [8]
0.05785119 -0.0081757605 0.02961034 0.0782084 0.017097456 -0.012246277 -0.019302739 -0.11459135
00000000: 5ff5 6c3d a0f3 05bc 6291 f23c ba2b a03d
00000010: f70f 8c3c 9ca4 48bc c720 9ebc dfae eabd

convolution_9_bias f4 [3]
0.870388 0.5596772 0.802292
00000000: bfd1 5e3f 0147 0f3f 0263 4d3f

convolution_bias f4 [8]
0.019533832 -0.14836408 0.11160064 -0.18408906 0.010274729 0.042348072 -0.06721361 -0.09597227
00000000: 6a05 a03c c1ec 17be e08e e43d d881 3cbe
00000010: 5657 283c 2c75 2d3d 4aa7 89bd 1c8d c4bd

split f4 [8, 3, 3, 3]
0.051081713 -0.08725502 -0.016536847 -0.10686073 0.055101544 0.022372963 0.12194976 0.012401752
0.0004684637 -0.05206702 -0.010846632 0.091983356 0.18945047 0.51686263 0.33832148 0.20199703
0.13187255 0.11540487 -0.06650149 -0.039086077 0.013935877 0.06735987 0.00745829 -0.041551698
0.06908542 -0.004801272 0.11016909 0.0052547073 0.12762092 -0.013954523 0.0069351844 0.12608147
0.038957648 -0.040379614 0.03616268 0.07343486 0.056280576 -0.042436913 0.15030809 0.1914685
-0.0856434 -0.1805737 0.35526276 0.26147884 -0.098892346 0.04901398 0.041238848 -0.11828608
0.024679758 -0.031035509 -0.16718324 0.3513049 0.14345026 0.10354492 0.08721459 0.17036304
0.2060342 -0.017292047 0.008380175 0.04156241 -0.014524633 -0.13940275 -0.17070794 0.19541831
0.2537935 0.16375707 0.0018233986 -0.038596198 -0.004987794 -0.28368542 -0.31667653 -0.2332289
0.09722445 0.06212394 0.045305297 -0.041116033 0.0039636893 0.033721037 -0.01330801 -0.056920364
-0.04449845 0.028899254 0.051372036 -0.095765844 0.09797908 -0.08407918 0.00016907229 -0.12914528
0.0047028083 0.002178741 0.039374612 -0.01561726 -0.1111628 -0.26520783 -0.5386494 -0.32947916
-0.23690371 -0.09456248 -0.0758866 0.08677392 0.018443892 0.020893052 -0.115073524 0.020245576
0.030384254 -0.028562123 -0.032456595 -0.11467956 -0.23093602 -0.4233386 -0.35394734 0.058028765
0.006620538 0.01516522 0.19570267 0.20364834 0.22215797 -0.07806335 -0.032891322 -0.06853165
0.07232246 0.072577216 -0.007856268 0.020944057 0.13958062 0.12431426 -0.07654527 -0.07218171
-0.06474636 0.026272831 -0.0074696196 0.042719405 0.07512695 0.07080076 0.04510079 -0.018316735
-0.11622895 -0.09836759 -0.2033126 -0.2028023 0.10193775 -0.14444481 -0.28145978 -0.18922336
-0.15117858 0.10877435 0.06559526 -0.15572186 0.17996423 0.15948793 -0.3903715 -0.13380967
-0.04180584 -0.0525982 -0.0065381895 0.07125651 0.15794687 -0.053817607 0.040673956 -0.23942444
-0.09127744 -0.012423287 0.061135817 0.02818306 -0.0067865676 0.042401038 0.10861272 0.090880655
0.07653745 0.12167388 0.13033554 0.031971306 -0.003875009 -0.016147094 -0.1733882 0.12733212
0.1892066 0.052556705 0.040703703 0.026464099 0.003596621 -0.074424535 0.0116166035 -0.012694543
-0.07465696 -0.13672951 -0.1805158 -0.37618992 -0.28888163 -0.041661065 -0.07680853 -0.012904717
-0.09917743 -0.07286624 0.0017812942 -0.036121726 -0.04216286 0.0071281376 -0.064650275 -0.058106784
0.0019598 0.38723105 0.32642183 0.2019382 -0.09772889 -0.049330607 -0.00031331115 -0.06306003
-0.045943264 0.0026956357 -0.14112377 -0.18036845 -0.040439777 -0.104500376 -0.1011211 -0.030431204
00000000: 0f3b 513d c3b2 b2bd 4878 87bc ccd9 dabd
00000010: 28b2 613d 8147 b73c ccc0 f93d b830 4b3c
00000020: 229c f539 3a44 55bd 12b6 31bc c561 bc3d
00000030: 4eff 413e 1c51 043f 7938 ad3e 4fd8 4e3e
00000040: 9909 073e 6359 ec3d ef31 88bd b918 20bd
00000050: 4e53 643c f9f3 893d ac64 f43b 1d32 2abd
00000060: a87c 8d3d fd53 9dbb 55a0 e13d ae2f ac3b
00000070: 0faf 023e 83a1 64bc 8b40 e33b 801b 013e
00000080: 0e92 1f3d 1865 25bd 511f 143d 0465 963d
00000090: 7686 663d 54d2 2dbd 5dea 193e 5210 443e
000000a0: cf65 afbd 50e8 38be 00e5 b53e 8ee0 853e
000000b0: 1288 cabd e2c2 483d 11ea 283d f93f f2bd
000000c0: 342d ca3c 2e3e febc 1532 2bbe 3cde b33e
000000d0: a0e4 123e 5c0f d43d 909d b23d a673 2e3e
000000e0: a1fa 523e 0da8 8dbc 004d 093c 583d 2a3d
000000f0: baf8 6dbc 98bf 0ebe 10ce 2ebe bd1b 483e
00000100: 39f1 813e efaf 273e 1bff ee3a 0c17 1ebd
00000110: a670 a3bb 373f 91be 6d23 a2be 8fd3 6ebe
00000120: 9d1d c73d ac75 7e3d 0c92 393d 4969 28bd
00000130: d6e1 813b 121f 0a3d d709 5abc 5425 69bd
00000140: 0244 36bd 21be ec3c 7c6b 523d e220 c4bd
00000150: 42a9 c83d b531 acbd ff48 3139 a93e 04be
00000160: 041a 9a3b 35c9 0e3b 4647 213d 89df 7fbc
00000170: 52a9 e3bd 52c9 87be ede4 09bf 7eb1 a8be
00000180: e396 72be f9a9 c1bd 6f6a 9bbd 86b6 b13d
00000190: a517 973c e827 ab3c abab ebbd 0dda a53c
000001a0: 66e8 f83c 1dfb e9bc 35f1 04bd 1edd eabd
000001b0: 7e7a 6cbe d6bf d8be 9638 b5be 92af 6d3d
000001c0: 19f1 d83b 8b77 783c 4866 483e 3189 503e
000001d0: 617d 633e addf 9fbd 0db9 06bd 525a 8cbd
000001e0: cc1d 943d 5da3 943d 94b7 00bc df92 ab3c
000001f0: 39ee 0e3e 7a98 fe3d c4c3 9cbd 01d4 93bd
00000200: bd99 84bd 1f3a d73c b6c3 f4bb 8bfa 2e3d
00000210: 29dc 993d fdff 903d 9bbb 383d fa0c 96bc
00000220: 7209 eebd f274 c9bd 2e31 50be 68ab 4fbe
00000230: bdc4 d03d 57e9 13be 7f1b 90be c5c3 41be
00000240: 8fce 1abe 16c5 de3d cf56 863d 8d75 1fbe
00000250: 8b48 383e ce50 233e c6de c7be 6705 09be
00000260: 9a3c 2bbd 3671 57bd 4f3e d6bb efee 913d
00000270: d3bc 213e da6f 5cbd bc99 263d ae2b 75be
00000280: abef babd 0b8b 4bbc 8d69 7a3d 29e0 e63c
00000290: db61 debb b6ac 2d3d 5970 de3d a31f ba3d
000002a0: abbf 9c3d 2830 f93d ae76 053e 58f4 023d
000002b0: ddf3 7dbb e946 84bc ad8c 31be 5a63 023e
000002c0: 60bf 413e b345 573d edb8 263d 3dcb d83c
000002d0: 4ab5 6b3b e46b 98bd 9153 3e3c c6fc 4fbc
000002e0: c0e5 98bd d202 0cbe 22d9 38be f79b c0be
000002f0: 4be8 93be cba4 2abd ca4d 9dbd 4e6e 53bc
00000300: 891d cbbd e53a 95bd 517a e93a 60f4 13bd
00000310: f7b2 2cbd 2793 e93b 5d67 84bd 6101 6ebd
00000320: fd6f 003b 2643 c63e c320 a73e e3c8 4e3e
00000330: 1626 c8bd e40e 4abd e943 a4b9 9e25 81bd
00000340: 012f 3cbd 43a9 303b c082 10be 82b2 38be
00000350: 2ea4 25bd 4b04 d6bd 9418 cfbd dc4a f9bc

split_10 f4 [16, 3, 3, 16]
-0.03874215 0.10369045 0.05228491 -0.039585117 0.07285216 0.17736343 0.106571764 0.121131085
0.06072509 0.089785956 0.1498115 -0.02512989 0.012224175 0.03627646 -0.0071744644 0.21202815
-0.10236824 0.07135535 -0.07057262 0.0049950285 -0.106603704 -0.07555805 0.13737458 0.09294141
0.016297508 0.044086147 0.18683474 -0.043429594 -0.06870239 -0.14339411 0.13707177 -0.079332694
0.00043718494 0.083680056 -0.047373235 -0.006016341 -0.04484855 -0.10910308 -0.08459591 -0.026167294
0.03838442 -0.077343725 -0.008903549 0.09626848 0.0068914965 -0.1176756 0.049132302 0.004927119
0.017803773 -0.031708255 0.022136275 0.07488944 -0.04846916 0.018459797 -0.043016624 0.07224399
0.05232943 -0.05708634 0.0019118583 -0.09014289 0.13916224 0.067661606 0.03095446 0.05442159
0.08184374 0.04355314 0.08735118 0.06476943 -0.097807094 0.052244276 0.06365248 -0.03724971
0.0027591286 0.046031505 -0.014237228 -0.08103907 0.07348037 -0.06350552 -0.024096875 0.039459165
0.01365182 -0.01434035 0.011830701 -0.007417694 0.06907972 -0.015109176 -0.02296033 0.07074652
0.0026633127 0.16236646 0.1135762 0.02039659 0.1430913 -0.10771013 0.019429093 0.07100384
0.11421067 -0.14906305 -0.13066858 0.086412065 -0.051499162 -0.3448601 -0.184638 -0.00437965
0.06301001 -0.050884068 -0.04459412 -0.061348427 -0.06893429 -0.021300554 -0.025648527 -0.05539643
0.0607855 0.032308374 0.10941375 -0.0036174203 -0.051984493 -0.11184329 -0.082561225 -0.023170609
-0.025132444 0.033205863 0.0031011377 0.060999244 0.061820615 0.020275548 -0.06629262 0.03755863
-0.0020477215 0.0443673 0.17815123 -0.08059122 0.0037972878 0.21100906 0.06348371 0.076028116
-0.12733835 -0.017846042 -0.065969646 -0.048897147 0.12587224 0.095835045 -0.0975003 -0.044295706
0.097108625 -0.11186845 -0.0129202735 -0.04311809 -0.023060905 -0.09089974 -0.30260757 -0.09972314
0.05683416 -0.0067565343 -0.07598007 -0.06750334 -0.14853309 -0.109030485 0.0018195222 -0.25398406
0.0199746 -0.046773985 0.02587891 0.06915751 0.06272011 -0.010244888 -0.049622353 -0.017363383
-0.027424539 -0.107890315 -0.079267964 -0.024810283 0.00471243 0.10155155 0.05073546 -0.11337055
0.07197632 -0.017966798 -0.022251187 0.051817514 0.007904785 0.101124 -0.024995668 0.023305437
-0.05400706 -0.054319642 0.01389718 -0.078213006 0.01323792 0.08540767 -0.08257625 0.065154634
0.004860619 0.09350571 0.060312036 0.050442986 0.035355322 0.13019657 0.057800535 0.2280233
0.0445288 -0.013079903 0.013365705 0.023633668 -0.08521027 0.049348168 -0.006569072 0.026859624
0.070743255 -0.26274154 -0.038490646 0.029263116 -0.03786559 0.013354787 0.05118545 0.06306655
0.2254283 -0.010635689 0.0031834107 -0.03545787 -0.11138458 -0.18775944 0.021330504 -0.09124349
0.04707369 -0.025940781 0.03878378 -0.027237358 -0.08156436 -0.06238661 -0.013647961 0.08225145
0.13353276 -0.077117465 -0.0058253077 0.013095441 0.009111602 0.013805725 -0.052190997 0.08680628
-0.11469088 0.015328961 0.04554966 0.049872432 -0.08324695 0.15936816 0.06780109 0.0959757
0.028483441 -0.05976468 -0.011940701 -0.06368738 0.18062465 0.08317003 -0.084653385 0.07154574
00000000: 17b0 1ebd a95b d43d b428 563d 0124 22bd
00000010: 8333 953d c29e 353e 4c42 da3d 9313 f83d
00000020: dfba 783d b3e1 b73d 3068 193e 33dd cdbc
00000030: e847 483c a096 143d c517 ebbb e81d 593e
00000040: 71a6 d1bd c122 923d 6188 90bd 56ad a33b
00000050: 0b53 dabd 2ebe 9abd ecab 0c3e 1158 be3d
00000060: 5a82 853c ad93 343d 9b51 3f3e 3be3 31bd
00000070: d7b3 8cbd e8d5 12be 8b5c 0c3e 2e79 a2bd
00000080: f835 e539 7360 ab3d 700a 42bd ba24 c5bb
00000090: 1db3 37bd 7071 dfbd 9f40 adbd cb5c d6bc
000000a0: fb38 1d3d 6366 9ebd 31e0 11bc 6928 c53d
000000b0: 10d2 e13b e8ff f0bd f43e 493d ab73 a13b
000000c0: 38d9 913c 84e0 01bd 2257 b53c a25f 993d
000000d0: 9987 46bd 0039 973c 3332 30bd a8f4 933d
000000e0: 6257 563d 5ed3 69bd 5297 fa3a d69c b8bd
000000f0: 8c80 0e3e 2b92 8a3d 3594 fd3c 2ce9 5e3d
00000100: b19d a73d c764 323d 2de5 b23d d6a5 843d
00000110: 164f c8bd 18fe 553d 3b5c 823d 2793 18bd
00000120: 7fd2 343b 888b 3c3d 4343 69bc d0f7 a5bd
00000130: e07c 963d 2f0f 82bd cf66 c5bc ef9f 213d
00000140: e2ab 5f3c caf3 6abc 8ed5 413c 2110 f3bb
00000150: ab79 8d3d 7a8c 77bc 4d17 bcbc 8de3 903d
00000160: f98a 2e3b 6543 263e a49a e83d c016 a73c
00000170: 8786 123e 2197 dcbd c329 9f3c 766a 913d
00000180: 49e7 e93d fca3 18be fccd 05be cff8 b03d
00000190: c9f0 52bd 8191 b0be be11 3dbe 2b83 8fbb
000001a0: 640b 813d d06b 50bd 53a8 36bd 7d48 7bbd
000001b0: 6c2d 8dbd 807e aebc dc1c d2bc 5ee7 62bd
000001c0: 37fa 783d c955 043d 5114 e03d 3e12 6dbb
000001d0: b1ed 54bd 180e e5bd dc15 a9bd 4ad0 bdbc
000001e0: 8ee2 cdbc df02 083d 753c 4b3b 58da 793d
000001f0: 9d37 7d3d e818 a63c 6dc4 87bd 14d7 193d
00000200: 1133 06bb 7cba 353d 476d 363e 020d a5bd
00000210: ebdb 783b c212 583e bf03 823d a1b4 9b3d
00000220: fc64 02be dd31 92bc 181b 87bd 6048 48bd
00000230: a7e4 003e 2a45 c43d 3dae c7bd 6a6f 35bd
00000240: e3e0 c63d 491b e5bd 8eaf 53bc 989c 30bd
00000250: 39ea bcbc a529 babd 61ef 9abe a53b ccbd
00000260: f0ca 683d eb65 ddbb 709b 9bbd 313f 8abd
00000270: 0f19 18be 604b dfbd 097d ee3a 330a 82be
00000280: c6a1 a33c 1496 3fbd 0200 d43c 74a2 8d3d
00000290: 6773 803d 2dda 27bc cf40 4bbd a73d 8ebc
000002a0: 6da9 e0bc 99f5 dcbd 3e57 a2bd ef3e cbbc
000002b0: ba6a 9a3b 42fa cf3d fccf 4f3d d22e e8bd
000002c0: 5268 933d 1b2f 93bc 1f48 b6bc 9a3e 543d
000002d0: 1283 013c 1a1a cf3d b7c3 ccbc 0beb be3c
000002e0: 8236 5dbd 467e 5ebd ffb0 633c 242e a0bd
000002f0: dce3 583c 37ea ae3d bd1d a9bd cb6f 853d
00000300: d445 9f3b ec7f bf3d c109 773d 4e9d 4e3d
00000310: bed0 103d 4052 053e 41c0 6c3d f17e 693e
00000320: d563 363d 174d 56bc d4fb 5a3c 659b c13c
00000330: b982 aebd 4e21 4a3d 5f41 d7bb b708 dc3c
00000340: d7e1 903d 0f86 86be 5ea8 1dbd 34b9 ef3c
00000350: f318 1bbd 09ce 5a3c d6a7 513d 0929 813d
00000360: add6 663e 5041 2ebc c5a0 503b 463c 11bd
00000370: 991d e4bd 0344 40be 4fbd ae3c dedd babd
00000380: 57d0 403d c381 d4bc bedb 1e3d e120 dfbc
00000390: 370b a7bd 1a89 7fbd b39b 5fbc 7373 a83d
000003a0: d0bc 083e c3ef 9dbd 39e2 bebb 438e 563c
000003b0: d448 153c 6831 623c 3ac6 55bd 7ec7 b13d
000003c0: 0de3 eabd 5326 7b3c 4892 3a3d 0947 4c3d
000003d0: 607d aabd 6831 233e 4cdb 8a3d e88e c43d
000003e0: 1b56 e93c cfcb 74bd eea2 43bc 876e 82bd
000003f0: abf5 383e 0c55 aa3d c15e adbd 9386 923d

split_12 f4 [16, 3, 3, 16]
-0.023325322 -0.03777396 0.08237791 0.03038479 0.0654216 0.013518027 -0.08091039 -0.10931843
0.010715013 0.006907608 0.053695153 0.04134789 -0.03210211 0.07390391 0.062344383 -0.107009515
0.009007192 -0.087136835 0.13430655 -0.010322545 0.017072173 0.0853823 -0.062475566 -0.026725613
-0.10273252 0.079828165 -0.015709309 -0.037803892 0.081032895 0.09695911 -0.11517153 0.11873913
-0.07995885 -0.033176407 0.046366863 0.0023796593 0.17039704 0.07646052 -0.10865251 0.0638941
-0.0059220823 0.0018155894 -0.04015264 0.06785095 0.065382846 0.039262116 -0.03445583 -0.18357949
-0.0030219709 -0.09672519 0.021859284 -0.21912175 0.01782714 -0.016462993 -0.028470512 -0.07049114
0.08603743 0.10483366 0.095852226 -0.060129724 0.068002984 0.14684701 -0.03437685 -0.0076336316
-0.072031796 -0.03612404 0.19758669 -0.013471667 -0.069224305 -0.09517972 0.079145625 -0.025612518
-0.098754205 0.11009815 0.021717757 0.02096883 0.047867864 0.0024616886 -0.03941318 -0.17007981
-0.07687708 0.0062968805 0.053693898 -0.019589594 0.07483288 0.081437685 -0.13816991 0.12311815
0.064946346 0.09903687 0.0033210674 0.03979591 0.045602076 0.040000107 -0.19527017 -0.03444561
0.06652812 -0.05985262 -0.06520921 -0.12689348 0.07586545 -0.04679119 0.019679168 -0.079744235
-0.097671285 0.09962621 -0.016470294 0.12529834 -0.030477997 -0.08132254 -0.049271487 -0.113970235
-0.21198557 0.052893348 0.06599464 0.010888821 0.13169509 0.13842304 0.033919457 0.0076284134
0.06475013 0.097910546 -0.1302868 0.047845174 -0.03420331 0.056293964 -0.04178841 -0.110623226
0.0043327217 0.029741844 0.10958813 -0.07747136 0.12623976 -0.057249635 -0.05617774 -0.032391608
0.14059612 -0.06740377 -0.00028233897 0.08557103 0.12312713 -0.037963096 0.007159453 -0.1368119
-0.023983363 0.020268591 0.08303734 0.013113631 0.007869899 -0.002387004 -0.033041093 0.01802774
0.13562512 -0.0062408047 0.14228721 -0.01359864 -0.15221447 -0.08316407 0.0334256 0.03868764
-0.00937099 -0.055358987 -0.2202397 -0.13824502 0.09093478 -0.015845275 -0.08954561 -0.0697036
-0.074050196 -0.04544847 0.07595385 0.07359833 -0.016690549 -0.035798263 0.04245247 -0.039331365
-0.08337218 0.10782621 0.0035470952 -0.026630534 -0.14738943 0.15132302 0.11531247 0.11704326
-0.16716532 0.05015775 -0.09822118 0.01836837 0.028415356 0.058752563 -0.09760895 0.0039971787
-0.08451161 0.07330747 0.011838829 0.08210392 0.00043165695 0.18259774 0.026135802 0.02973081
0.22183064 0.07432201 -0.060309067 -0.06849659 -0.13217849 -0.04616743 -0.061435547 -0.04295534
0.017128643 0.032943625 -0.120783634 -0.12256716 0.05608686 -0.15058467 -0.04773155 -0.20782816
0.12754051 -0.08089525 0.004825529 -0.005991777 0.044361368 -0.14605878 0.11127911 0.100249365
0.031774428 0.041694853 0.0317516 -0.03823942 -0.0449827 0.11191609 0.103857026 0.011167679
-0.08786138 -0.062182333 -0.054910526 -0.029278914 0.05865661 -0.025538964 0.03290092 -0.010412764
0.092426926 0.026504617 -0.04045409 -0.05239157 0.015767548 0.07437949 -0.03944555 0.036528815
-0.0077848197 0.009876902 0.112973206 -0.074473135 0.046079453 -0.0131102465 0.090121076 -0.14524019
00000000: bf14 bfbc deb8 1abd c0b5 a83d 86e9 f83c
00000010: c3fb 853d b77a 5d3c 59b4 a5bd 57e2 dfbd
00000020: 068e 2f3c 3759 e23b 73ef 5b3d 685c 293d
00000030: 817d 03bd ef5a 973d d35c 7f3d ce27 dbbd
00000040: e792 133c cc74 b2bd a887 093e e41f 29bc
00000050: f1da 8b3c eadc ae3d 61e6 7fbd acef dabc
00000060: 6d65 d2bd f37c a33d cfb0 80bc 41d8 1abd
00000070: 93f4 a53d 7f92 c63d 0ddf ebbd 802d f33d
00000080: 77c1 a3bd fce3 07bd 2eeb 3d3d 0ff4 1b3b
00000090: 907c 2e3e 5597 9c3d 3585 debd e9da 823d
000000a0: 070e c2bb 12f9 ed3a 1877 24bd 70f5 8a3d
000000b0: 71e7 853d 50d1 203d 8e21 0dbd 43fc 3bbe
000000c0: 420c 46bb db17 c6bd 3e12 b33c 7461 60be
000000d0: 390a 923c 66dd 86bc fe3a e9bc a95d 90bd
000000e0: 6434 b03d 08b3 d63d 2c4e c43d 964a 76bd
000000f0: 2645 8b3d 105f 163e bdce 0cbd 8b23 fabb
00000100: 6885 93bd cdf6 13bd 2a54 4a3e 44b8 5cbc
00000110: 79c5 8dbd 96ed c2bd 1a17 a23d 58d1 d1bc
00000120: a53f cabd 247b e13d 70e9 b13c d3c6 ab3c
00000130: 1811 443d 4854 213b b76f 21bd 6729 2ebe
00000140: bb71 9dbd 1056 ce3b 22ee 5b3d 5b7a a0bc
00000150: fb41 993d cdc8 a63d 6a7c 0dbe 5e25 fc3d
00000160: 9702 853d d8d3 ca3d 44a6 593b 0901 233d
00000170: 3ec9 3a3d 27d7 233d e7f4 47be d716 0dbd
00000180: e53f 883d 0528 75bd 688c 85bd 5df0 01be
00000190: 585f 9b3d 1ea8 3fbd 3536 a13c f250 a3bd
000001a0: e207 c8bd d408 cc3d b6ec 86bc 354e 003e
000001b0: feac f9bc 6f8c a6bd e6d0 49bd 3a69 e9bd
000001c0: bf12 59be b2a6 583d 3328 873d 0767 323c
000001d0: 14db 063e c5be 0d3e 21ef 0a3d c5f7 f93b
000001e0: b79b 843d 5385 c83d e769 05be 4df9 433d
000001f0: c518 0cbd 8094 663d 532a 2bbd 6e8e e2bd
00000200: 81f9 8d3b 2ba5 f33c be6f e03d 4ea9 9ebd
00000210: ff44 013e 987e 6abd a11a 66bd 10ad 04bd
00000220: 6ef8 0f3e fd0a 8abd e506 94b9 dd3f af3d
00000230: 142a fc3d 317f 1bbd d899 ea3b 6b18 0cbe
00000240: c278 c4bc 510a a63c 7b0f aa3d 8eda 563c
00000250: c0f0 003c 486f 1cbb 1956 07bd e9ae 933c
00000260: 50e1 0a3e aa7f ccbb bdb3 113e d5cc 5ebc
00000270: 1cde 1bbe ed51 aabd 48e9 083d ee76 1e3d
00000280: c888 19bc 1bc0 62bd 8486 61be 1a90 0dbe
00000290: 043c ba3d f3cd 81bc b063 b7bd c3c0 8ebd
000002a0: a1a7 97bd 2d28 3abd b18d 9b3d b9ba 963d
000002b0: 9eba 88bc 33a1 12bd a4e2 2d3d ed19 21bd
000002c0: 09bf aabd fdd3 dc3d 6276 683b 4728 dabc
000002d0: 41ed 16be 6cf4 1a3e f228 ec3d 60b4 ef3d
000002e0: 632d 2bbe 3672 4d3d 3028 c9bd 4479 963c
000002f0: 52c7 e83c 87a6 703d 34e7 c7bd c4fa 823b
00000300: 6c14 adbd 3a22 963d a6f7 413c 1a26 a83d
00000310: 0450 e239 e7fa 3a3e c01a d63c 078e f33c
00000320: 9227 633e 2336 983d a406 77bd f147 8cbd
00000330: cc59 07be 0f1a 3dbd d7a3 7bbd f0f1 2fbd
00000340: 5e51 8c3c e5ef 063d 695d f7bd 7e04 fbbd
00000350: 56bb 653d de32 1abe 2882 43bd e8d0 54be
00000360: fb99 023e 69ac a5bd 791f 9e3b ab56 c4bb
00000370: 44b4 353d 6f90 15be 4de6 e33d 8a4f cd3d
00000380: e725 023d 39c8 2a3d f70d 023d f0a0 1cbd
00000390: c83f 38bd 4334 e53d feb2 d43d a4f8 363c
000003a0: abf0 b3bd e7b2 7ebd dce9 60bd 55da efbc
000003b0: ea41 703d 1737 d1bc 1dc3 063d 4c9a 2abc
000003c0: 544a bd3d 3620 d93c 30b3 25bd 8b98 56bd
000003d0: f22a 813c 4654 983d a891 21bd 3d9f 153d
000003e0: cd17 ffbb bbd2 213c 7f5e e73d 5f85 98bd
000003f0: cfbd 3c3d 5ccc 56bc 6691 b83d d8b9 14be

split_14 f4 [12, 3, 3, 16]
-0.02511081 0.01439455 -0.120419785 -0.013605005 -0.0790503 0.033574376 0.04606948 -0.07828375
-0.07366757 0.008804646 0.03133954 0.0523556 -0.10331458 0.11802649 0.021545278 0.012740894
-0.079448536 0.023607973 -0.062040303 0.07467514 -0.036192782 0.02342984 -0.010279599 -0.041785605
-0.056365985 0.0012176203 0.0031667657 0.10649659 -0.075158566 0.033420596 -0.16434607 0.033704042
0.066513956 0.17260641 0.04712877 -0.06271106 -0.026617356 0.0155190015 0.03837524 -0.012152386
-0.04824644 -0.058783464 0.021212501 0.163752 -0.14478317 -0.07542622 -0.05909416 -0.028769441
0.03800933 -0.07124284 0.011493706 -0.128197 0.09690096 0.012926965 -0.009346408 0.01813122
0.1436651 -0.045652006 0.07044278 -0.034154918 0.22245082 -0.10243544 -0.09792853 0.04014286
-0.017562045 -0.08820254 -0.08757069 -0.15040399 0.06708292 0.016951684 -0.026470972 -0.11590037
0.25069183 0.10933886 0.04169072 -0.09972466 0.36101043 -0.13930865 0.192852 -0.010179045
0.03496826 -0.11075212 0.07456894 0.053871684 -0.089490205 0.0029880563 0.049639724 -0.025613686
0.04132918 0.047798302 -0.046297826 -0.051256012 0.009930345 0.0061726407 0.108219475 -0.07278009
-0.09946854 0.13792677 -0.013804098 0.08063954 -0.02106401 -0.06316357 0.115121104 0.013324124
-0.060524702 -0.09781151 -0.0046352474 -0.0016233014 -0.20570233 -0.04986309 -0.08021922 0.07318376
0.029248636 -0.0076306756 0.009886623 -0.07112804 -0.044649485 0.14043948 0.0057547726 0.0165754
0.13141236 -0.10542583 -0.19093557 -0.0077669397 -0.1301678 -0.015111246 0.0023760756 0.095884204
-0.043272074 0.087262556 -0.08331928 -0.016171811 0.033262175 0.041106068 -0.023125842 0.025447296
0.0702461 0.01439311 -0.073064685 0.03419691 0.027183358 -0.00912524 0.016542455 0.028995693
-0.11962866 0.010458018 0.010568522 -0.026574057 0.1273193 0.09420745 -0.01069036 -0.1902401
0.04282465 -0.13003315 -0.0788492 -0.087987274 0.07714266 -0.030298054 -0.123080865 -0.08293555
-0.08663468 -0.019952854 -0.038608987 -0.08415608 0.017415777 -0.04504097 -0.061813693 -0.04407848
-0.08206306 -0.041747145 0.00916021 0.017661138 0.021131216 -0.077132754 0.121181846 0.10242322
-0.11678036 0.051085323 0.13756312 -0.032127667 0.02622645 0.074827656 -0.019910417 -0.10315793
0.03623001 -0.086137354 -0.027195498 0.025286991 -0.06744189 0.02422946 -0.057524003 -0.0644854
-0.14978164 -0.0047644996 -0.022639964 -0.08202778 -0.04536731 0.04155334 0.15919434 -0.09058793
0.02322476 0.10292943 0.029201832 -0.11508114 -0.15569761 -0.023160703 0.0015789995 -0.07498364
-0.094294034 -0.11918499 -0.044768043 -0.10870697 -0.050580803 -0.045375224 0.0005657153 -0.033842165
0.072355375 0.11904897 -0.070042305 0.0598992 0.043163117 -0.019913292 0.13627936 -0.030761877
-0.17126945 0.083116144 0.036230966 0.035378907 -0.036649343 0.011027798 -0.018287724 0.0066343313
0.054166596 0.139344 -0.062420297 0.012806091 0.0074981446 0.19911483 0.13108248 0.056616865
0.005928646 0.07938016 0.009539332 -0.048270646 -0.041525435 0.01451533 -0.018412087 -0.03939311
-0.06520399 0.10263111 -0.05653372 0.0193211 -0.06742449 -0.0141977295 -0.07086806 -0.08733233
00000000: 2fb5 cdbc 1ed7 6b3c a69e f6bd 87e7 5ebc
00000010: 20e5 a1bd 4985 093d 5ab3 3c3d 3b53 a0bd
00000020: 06df 96bd 5d41 103c e45d 003d d372 563d
00000030: 9896 d3bd dfb7 f13d b97f b03c 2fbf 503c
00000040: eab5 a2bd 8265 c13c f91d 7ebd 48ef 983d
00000050: e23e 14bd f0ef bf3c c36b 28bc 6227 2bbd
00000060: 05e0 66bd 8f98 9f3a 8389 4f3b e21a da3d
00000070: bcec 99bd 09e4 083d 564a 28be 400d 0a3d
00000080: 7838 883d bcbf 303e 190a 413d a86e 80bd
00000090: a40c dabc 6943 7e3c 5b2f 1d3d cd1a 47bc
000000a0: 0f9e 45bd eec6 70bd d7c5 ad3c 9bae 273e
000000b0: 0a42 14be 1079 9abd b80c 72bd e4ad ebbc
000000c0: acaf 1b3d c4e7 91bd 1950 3c3c 1346 03be
000000d0: 0374 c63d 9fcb 533c ad21 19bc ed87 943c
000000e0: f21c 133e 99fd 3abd 4e44 903d 07e6 0bbd
000000f0: 26ca 633e acc9 d1bd c18e c8bd d76c 243d
00000100: 47de 8fbc 89a3 b4bd 4358 b3bd 8103 1abe
00000110: c562 893d 42de 8a3c a7d9 d8bc 2c5d edbd
00000120: ae5a 803e 0ded df3d e3c3 2a3d 713c ccbd
00000130: 5cd6 b83e eda6 0ebe ff7a 453e 02c6 26bc
00000140: e13a 0f3d 02d2 e2bd 9ab7 983d 8ea8 5c3d
00000150: a446 b7bd 44d3 433b 0653 4b3d cbd3 d1bc
00000160: c948 293d 27c8 433d caa2 3dbd d3f1 51bd
00000170: e3b2 223c dd43 ca3b 2ca2 dd3d ba0d 95bd
00000180: 29b6 cbbd ad3c 0d3e 952a 62bc 5826 a53d
00000190: 6e8e acbc e75b 81bd 9dc4 eb3d 6d4d 5a3c
000001a0: c0e8 77bd 6751 c8bd 46e3 97bb f5c4 d4ba
000001b0: a2a3 52be 3d3d 4cbd f949 a4bd 5ee1 953d
000001c0: d69a ef3c bf0a fabb 81fb 213c 94ab 91bd
000001d0: 61e2 36bd 5ecf 0f3e 8892 bc3b 22c9 873c
000001e0: f690 063e 7fe9 d7bd 9d84 43be d081 febb
000001f0: b54a 05be 2995 77bc efb7 1b3b f05e c43d
00000200: 0f3e 31bd b6b6 b23d 4ca3 aabd bf7a 84bc
00000210: eb3d 083d d65e 283d 6872 bdbc d976 d03c
00000220: 30dd 8f3d 14d1 6b3c f0a2 95bd 0f12 0c3d
00000230: a2af de3c 0882 15bc 0b84 873c 6088 ed3c
00000240: dfff f4bd 1b58 2b3c 9827 2d3c d6b1 d9bc
00000250: fe5f 023e d6ef c03d 9f26 2fbc 4dce 42be
00000260: e668 2f3d 6927 05be b07b a1bd ac32 b4bd
00000270: f9fc 9d3d a033 f8bc d211 fcbd 1dda a9bd
00000280: 866d b1bd 2b74 a3bc 7524 1ebd 065a acbd
00000290: 88ab 8e3c e17c 38bd 5b30 7dbd a38b 34bd
000002a0: ad10 a8bd 0eff 2abd b514 163c 17ae 903c
000002b0: 5f1b ad3c c7f7 9dbd 302e f83d 44c3 d13d
000002c0: 8b2a efbd d83e 513d 59dd 0c3e 4d98 03bd
000002d0: dad8 d63c 3e3f 993d 2c1b a3bc 7744 d3bd
000002e0: eb65 143d c868 b0bd 18c9 debc aa26 cf3c
000002f0: f91e 8abd dc7c c63c 4a9e 6bbd ec10 84bd
00000300: 5c60 19be 851f 9cbb 7277 b9bc 2efe a7bd
00000310: 13d3 39bd d633 2a3d d703 233e 2a86 b9bd
00000320: da41 be3c aacc d23d ae38 ef3c a9af ebbd
00000330: 326f 1fbe 84bb bdbc 6ef6 ce3a 0691 99bd
00000340: 3b1d c1bd 4317 f4bd b25e 37bd c3a1 debd
00000350: d12d 4fbd 5fdb 39bd 834c 143a 159e 0abd
00000360: 0e2f 943d f2cf f33d 5772 8fbd dd58 753d
00000370: cfcb 303d 3321 a3bc d18c 0b3e 5500 fcbc
00000380: 4261 2fbe cc38 aa3d ec66 143d 79e9 103d
00000390: 9f1d 16bd f0ad 343c 23d0 95bc ce64 d93b
000003a0: cbdd 5d3d 32b0 0e3e 6dac 7fbd a4d0 513c
000003b0: ffb2 f53b c2e4 4b3e 7c3a 063e 16e7 673d
000003c0: 1645 c23b 1192 a23d dc4a 1c3c 71b7 45bd
000003d0: 9316 2abd b5d1 6d3c f2d4 96bc ab5a 21bd
000003e0: ab89 85bd 4230 d23d e78f 67bd 4947 9e3c
000003f0: da15 8abd 989d 68bc 4623 91bd 4bdb b2bd

split_16 f4 [8, 3, 3, 12]
-0.009027782 0.009675646 -0.09094248 -0.11019351 -0.04875852 0.18184859 -0.07968878 0.027007394
-0.044009004 -0.13045326 -0.12207237 0.0073842355 -0.03317143 -0.10117428 0.07940316 0.017042069
-0.019158585 -0.16445741 -0.03379006 -0.015434541 0.089148544 -0.0072370027 -0.22692859 -0.10432885
0.057527922 0.11370163 -0.10743859 -0.0057508457 -0.0069338297 -0.06604662 -0.02694438 -0.056197323
0.05762878 0.087448835 -0.22231577 0.037978273 0.074017026 -0.09897691 -0.17829496 -0.070101485
-0.11022004 -0.034206137 -0.07505763 -0.046392586 -0.08891993 0.016395599 0.117538705 0.11835716
-0.07998403 0.021094212 0.01139558 0.12618932 -0.06822711 -0.05222101 -0.0044423067 0.033579446
0.044490736 -0.06781898 0.21244378 0.07308174 -0.05263336 0.09630947 -0.06249074 0.015644738
0.0049987994 0.07651722 0.11012567 -0.18198082 -0.09657412 -0.067496195 0.00043140628 -0.10419491
-0.042886805 -0.010191818 -0.099633835 -0.034858 0.057414137 -0.031622145 0.033037942 -0.025043046
0.036984973 -0.10262833 -0.03436641 -0.038778234 0.0072927335 0.13584416 0.10915338 0.085994504
0.0164286 -0.03956625 -0.054814328 0.09175602 0.039504535 0.00054130435 0.048278876 0.048896376
-0.058524445 0.17941318 0.10476961 0.02691015 0.036152486 -0.02997652 0.033030994 -0.20862846
-4.8748374e-05 0.111995496 -0.12613197 -0.07407736 -0.0104042245 0.0047448426 0.09897803 -0.08613188
0.053536303 -0.060290385 0.10601173 0.039106134 -0.041846834 0.030047344 0.07557409 -0.010224016
-0.040543344 0.035817232 -0.056508295 0.19852582 0.03728953 0.061261423 -0.04509634 -0.06389347
-0.072300814 -0.05962284 0.015932463 -0.15265119 -0.15710497 0.07015715 0.013305727 -0.02114879
-0.053739667 0.032392435 -0.052300777 0.17564341 -0.08412513 0.031090818 0.026131792 0.09728084
-0.096333124 -0.08967556 -0.049655497 -0.017664857 -0.039783977 -0.06091843 -0.011634301 0.11482028
0.12794387 0.06445926 0.05191617 0.07343289 0.102388404 -0.0014963379 -0.10673657 0.07125515
-0.08428665 0.111804366 0.05940265 -0.15575016 0.11034317 -0.11652589 -0.00957394 0.014700016
0.11755944 0.08169717 -0.055792935 -0.026228433 -0.053868625 -0.18476015 0.1620785 0.04156009
0.15390046 0.0847425 0.024945743 -0.16505158 0.09006703 0.085238054 -0.058407985 -0.011403911
-0.0814143 0.04482868 0.040778376 -0.06946663 -0.08060293 -0.1167145 -0.1017231 -0.041228678
-0.006222615 0.02158488 -0.090278335 0.083754934 0.023370478 -0.07733222 -0.15789655 0.016265295
-0.050126348 0.13398877 0.034491006 0.06841785 0.06788577 -0.0077701793 -0.058853395 -0.00889312
-0.06053061 0.096745126 -0.061368536 0.0048359726 -0.14560673 -0.10376394 -0.017111275 0.0143082645
0.030184094 0.031214725 -0.04082281 -0.017176988 -0.043682165 0.1400886 -0.05846772 -0.0060305577
0.006771582 -0.07422211 0.03522689 0.067075744 0.12657197 -0.10410778 0.0054438603 0.022199517
0.010134837 -0.20556372 -0.050231583 -0.12760907 0.03849044 0.22071634 -0.09064219 -0.12885073
0.061942704 0.10764946 0.09633067 -0.061271306 -0.05335474 0.088060476 -0.033900585 0.14699137
-0.0044029015 -0.10376944 0.02952627 -0.01385295 0.103388466 -0.09831656 0.025277445 -0.056798324
00000000: 43e9 13bc 9a86 1e3c 0d40 babd 23ad e1bd
00000010: 04b7 47bd 8436 3a3e df33 a3bd 9c3e dd3c
00000020: c942 34bd 8a95 05be 1401 fabd 75f7 f13b
00000030: c4de 07bd 7634 cfbd 209e a23d cf9b 8b3c
00000040: 77f2 9cbc 8667 28be 7267 0abd 28e1 7cbc
00000050: 8393 b63d 6124 edbb f85f 68be 5daa d5bd
00000060: 66a2 6b3d 66dc e83d c308 dcbd 9771 bcbb
00000070: 2e35 e3bb 7343 87bd 76ba dcbc 2a2f 66bd
00000080: 280c 6c3d 6018 b33d bfa6 63be 1b8f 1b3d
00000090: 3d96 973d 68b4 cabd f492 36be 5e91 8fbd
000000a0: 0bbb e1bd bc1b 0cbd d1b7 99bd 2706 3ebd
000000b0: a71b b6bd 1050 863c 22b8 f03d 3d65 f23d
000000c0: abce a3bd c5cd ac3c 87b4 3a3c c637 013e
000000d0: a8ba 8bbd b3e5 55bd c590 91bb 9a8a 093d
000000e0: eb3b 363d ade4 8abd dd8a 593e e1ab 953d
000000f0: 1496 57bd e63d c53d 4af6 7fbd 6529 803c
00000100: f8cc a33b 0fb5 9c3d 9189 e13d 2e59 3abe
00000110: a7c8 c5bd 723b 8abd 5f2e e239 2464 d5bd
00000120: 13aa 2fbd 95fb 26bc d30c ccbd 43c7 0ebd
00000130: 162b 6b3d 3986 01bd cb52 073d 1327 cdbc
00000140: 8e7d 173d cd2e d2bd cbc3 0cbd edd5 1ebd
00000150: e2f7 ee3b bb1a 0b3e cf8b df3d e31d b03d
00000160: 4595 863c 3810 22bd fd84 60bd 95ea bb3d
00000170: 82cf 213d 52e6 0d3a 12c0 453d 9147 483d
00000180: 54b7 6fbd 17b8 373e 7391 d63d ad72 dc3c
00000190: a114 143d 5291 f5bc 824b 073d b3a2 55be
000001a0: 2b77 4cb8 e55d e53d bd28 01be dfb5 97bd
000001b0: 7b76 2abc a07a 9b3b feb4 ca3d e965 b0bd
000001c0: e248 5b3d 0df3 76bd ae1c d93d c12d 203d
000001d0: 9667 2bbd d925 f63c 97c6 9a3d a282 27bc
000001e0: c710 26bd 17b5 123d 3e75 67bd 5a4a 4b3e
000001f0: e8bc 183d 42ed 7a3d f1b6 38bd 94da 82bd
00000200: 7312 94bd 1437 74bd cc84 823c 9850 1cbe
00000210: 20e0 20be 8dae 8f3d 4400 5a3c 3a40 adbc
00000220: 201e 5cbd eead 043d 5739 56bd dedb 333e
00000230: cc49 acbd 2cb2 fe3c 5712 d63c 2d3b c73d
00000240: 4d4a c5bd d2a7 b7bd 9063 4bbd e4b5 90bc
00000250: 86f4 22bd 9b85 79bd cc9d 3ebc e526 eb3d
00000260: b803 033e 3703 843d 0da6 543d fc63 963d
00000270: 03b1 d13d c520 c4ba b498 dabd 38ee 913d
00000280: 7b9e acbd b0f9 e43d 3150 733d f87c 1fbe
00000290: 9afb e13d 20a5 eebd 04dc 1cbc 56d8 703c
000002a0: 01c3 f03d d950 a73d 2287 64bd 03dd d6bc
000002b0: 59a5 5cbd c431 3dbe e8f7 253e ea3a 2a3d
000002c0: 1598 1d3e 7a8d ad3d 045b cc3c 4803 29be
000002d0: 1075 b83d 4a91 ae3d 363d 6fbd 78d7 3abc
000002e0: 8abc a6bd 479e 373d 3a07 273d 8544 8ebd
000002f0: 2613 a5bd 0308 efbd 3354 d0bd 67df 28bd
00000300: 14e7 cbbb c6d2 b03c d9e3 b8bd b587 ab3d
00000310: 7273 bf3c 5b60 9ebd a2af 21be cc3e 853c
00000320: 4951 4dbd 5a34 093e 7146 0d3d a81e 8c3d
00000330: b207 8b3d fd9c febb 4210 71bd 73b4 11bc
00000340: f2ee 77bd 4f22 c63d 935d 7bbd 1477 9e3b
00000350: ee19 15be 3082 d4bd f22c 8cbc 366d 6a3c
00000360: a244 f73c 06b6 ff3c d235 27bd c1b6 8cbc
00000370: 12ec 32bd 6373 0f3e d97b 6fbd fc9b c5bb
00000380: 26e4 dd3b c301 98bd 124a 103d 025f 893d
00000390: 159c 013e 7636 d5bd 6962 b23b c3db b53c
000003a0: 960c 263c 4c7f 52be a2bf 4dbd f4ab 02be
000003b0: 27a8 1d3d 7703 623e 9da2 b9bd 72f1 03be
000003c0: a2b7 7d3d 5277 dc3d 0449 c53d 9ff7 7abd
000003d0: 808a 5abd 0d59 b43d 57db 0abd e884 163e
000003e0: 3746 90bb 1285 d4bd 14e1 f13c 7cf7 62bc
000003f0: 55bd d33d 315a c9bd a512 cf3c 5ca5 68bd

split_18 f4 [3, 3, 3, 8]
-0.45568672 1.0871862 -0.16614999 0.99287254 1.2171628 0.85810924 0.8995681 1.4301982
-0.5746672 0.765835 -0.98371285 0.7404072 -0.58868206 0.7685752 0.9276406 0.4594836
0.5651766 0.9430944 -0.27901343 0.9664726 1.0512028 1.1716745 1.0262961 0.6329704
-0.80500335 0.7291871 -0.54589576 0.8443194 -0.5977164 0.67021865 1.038962 0.668714
-0.30405992 0.04142294 -0.56463355 0.51641065 -0.8458321 1.2069048 1.1484829 0.93466586
0.41826025 -0.16238837 0.23032528 0.6118671 0.44704932 0.66993505 1.1840614 0.1847688
-0.5066066 -0.4571521 -0.2486491 0.61944044 -0.47512436 0.5950244 1.1418941 -0.8193608
0.49344298 -0.45950648 0.8199343 0.584837 0.23819795 0.54142296 1.3229165 -0.45351335
0.54608583 0.9903297 0.74901587 0.5028992 0.6088179 0.98368335 1.1968311 0.37245962
0.74544096 1.4492215 0.57847536 0.8338035 1.8501798 1.0205009 0.4817625 0.97153115
0.34827748 0.9609356 -1.4448633 0.7740048 -0.47055706 0.4819959 0.3136585 0.65543026
0.8346416 0.8940074 -1.6148874 1.3210678 1.0136079 0.7208193 1.0594842 0.25266036
-0.6211311 0.6187406 -0.55783445 0.82425505 -0.86366415 0.89252937 0.5271084 0.9157559
1.1610589 -0.4952716 -0.40574872 0.85455436 -0.9525224 1.3265797 0.65710616 1.3464848
0.8504023 -0.21203706 0.27080145 1.0906694 0.8430709 0.47212315 1.0443476 0.77350146
0.06704871 -1.3661363 -0.17335166 0.8160181 -0.5283552 0.81014866 0.65612286 -1.257264
0.9516985 -1.1928272 1.3699085 1.1190888 0.6235905 0.8068375 0.4584489 0.59719646
0.83858943 1.2183691 1.1050811 0.70400405 1.2625577 1.3047901 0.8272303 0.9767589
1.1499842 1.0543282 1.1297343 -0.4125606 1.0172986 0.2780496 0.19504088 0.8418848
0.8975009 0.7960584 0.62914914 -0.14653268 -0.049745463 -0.20607924 -0.49920473 0.77059835
1.0319078 0.75526947 0.53721946 0.16077816 0.6851145 0.16501567 -0.10797612 0.65639853
0.9529257 1.0656035 0.909284 0.86541265 0.109584376 0.56816113 0.09433557 0.73564243
1.2109995 0.8945364 1.0188571 0.82858634 0.4447077 -0.19734895 -0.4931246 1.266963
1.3457922 0.6103191 0.7508336 0.31767344 0.8101464 -0.473395 -0.22893047 0.98790264
0.67231023 0.23962682 0.62698585 1.2314805 0.1553087 0.6411023 0.41835618 0.29714885
1.0876237 0.42101562 1.1899154 1.0155735 0.97879976 -0.2712173 -0.27160954 1.0692714
1.0996685 1.2335434 0.82915163 0.73658717 0.9174509 0.15582417 0.2636919 1.304184
00000000: c54f e9be eb28 8b3f 3923 2abe e52c 7e3f
00000010: fecb 9b3f 0cad 5b3f 184a 663f bc10 b73f
00000020: 641d 13bf c30d 443f 9bd4 7bbf 548b 3d3f
00000030: deb3 16bf 58c1 443f db79 6d3f 6f41 eb3e
00000040: 6aaf 103f a26e 713f d9da 8ebe c06a 773f
00000050: d08d 863f 6ef9 953f ac5d 833f 590a 223f
00000060: b314 4ebf 01ac 3a3f d3bf 0bbf 5125 583f
00000070: f103 19bf 7393 2b3f b5fc 843f d730 2b3f
00000080: bead 9bbe 1aab 293d d38b 10bf 7d33 043f
00000090: 7488 58bf db7b 9a3f 7d01 933f 4346 6f3f
000000a0: 3526 d63e 2349 26be 64da 6b3e 52a3 1c3f
000000b0: a6e3 e43e dd80 2b3f 538f 973f 0834 3d3e
000000c0: f8b0 01bf d70f eabe df9d 7ebe a693 1e3f
000000d0: 8043 f3be 8553 183f 9629 923f a1c1 51bf
000000e0: 8fa4 fc3e 6f44 ebbe 37e7 513f e1b7 153f
000000f0: 2aea 733e b29a 0a3f 5455 a93f e732 e8be
00000100: 48cc 0b3f 3f86 7d3f 81bf 3f3f 01be 003f
00000110: 7ddb 1b3f acd2 7b3f c331 993f 07b3 be3e
00000120: 38d5 3e3f 1780 b93f f616 143f 2574 553f
00000130: b1d2 ec3f c69f 823f 93a9 f63e 44b6 783f
00000140: 6d51 b23e e0ff 753f 48f1 b8bf 2e25 463f
00000150: dbec f0be 2bc8 f63e d997 a03e 47ca 273f
00000160: 12ab 553f abdd 643f a1b4 cebf c018 a93f
00000170: e7bd 813f 9d87 383f 2e9d 873f b35c 813e
00000180: 7302 1fbf c965 1e3f 3dce 0ebf 6102 533f
00000190: 1819 5dbf ce7c 643f 93f0 063f fb6e 6a3f
000001a0: 949d 943f 3d94 fdbe 4cbe cfbe 13c4 5a3f
000001b0: 82d8 73bf 5dcd a93f 1c38 283f 9d59 ac3f
000001c0: f7b3 593f 3e20 59be 7da6 8a3e 0e9b 8b3f
000001d0: 7fd3 573f 20ba f13e 2fad 853f 3104 463f
000001e0: d650 893d 8edd aebf 1983 31be 90e6 503f
000001f0: 4942 07bf e765 4f3f abf7 273f 07ee a0bf
00000200: 83a2 733f 90ae 98bf 2959 af3f 4d3e 8f3f
00000210: a1a3 1f3f e78c 4e3f d0b9 ea3e dee1 183f
00000220: ccad 563f 85f3 9b3f 4c73 8d3f 9c39 343f
00000230: 7e9b a13f 5d03 a73f 5dc5 533f df0c 7a3f
00000240: af32 933f 3af4 863f 229b 903f 253b d3be
00000250: d736 823f 845c 8e3e ccb8 473e c385 573f
00000260: 9ec2 653f 7cca 4b3f eb0f 213f aa0c 16be
00000270: e6c1 4bbd 7006 53be c397 ffbe ef45 453f
00000280: 8e15 843f 5759 413f 3787 093f 08a3 243e
00000290: aa63 2f3f def9 283e 9622 ddbd bc09 283f
000002a0: f0f2 733f b265 883f d6c6 683f af8b 5d3f
000002b0: c66d e03d 0273 113f 0233 c13d 1053 3c3f
000002c0: 0802 9b3f 5600 653f e969 823f 3c1e 543f
000002d0: bab0 e33e d815 4abe d47a fcbe d82b a23f
000002e0: eb42 ac3f df3d 1c3f a136 403f 18a6 a23e
000002f0: c165 4f3f d460 f2be c06c 6abe 30e7 7c3f
00000300: 861c 2c3f bc60 753e 2582 203f 27a1 9d3f
00000310: 3e09 1f3e 481f 243f c832 d63e e523 983e
00000320: 4137 8b3f 5c8f d73e 264f 983f 50fe 813f
00000330: 9f92 7a3f fedc 8abe 6810 8bbe e3dd 883f
00000340: f0c1 8c3f c0e4 9d3f 4843 543f fa90 3c3f
00000350: 10de 6a3f 5f90 1f3e a002 873e 80ef a63f
